…
    "    tf.keras.layers.Dropout(0.2,seed = 2019),\n",
    "    tf.keras.layers.Dense(3,activation = \"softmax\")   #Adding the Output Layer\n",
    "])"
   ]
  },
  {
   "cell_type": "code",
   "execution_count": 110,
   "metadata": {},
   "outputs": [
    {
     "name": "stdout",
     "output_type": "stream",
     "text": [
      "Model: \"sequential_15\"\n",
      "_________________________________________________________________\n",
      " Layer (type)                Output Shape              Param #   \n",
      "=================================================================\n",
      " conv2d_60 (Conv2D)          (None, 178, 178, 16)      448       \n",
      "                                                                 \n",
      " max_pooling2d_60 (MaxPoolin  (None, 89, 89, 16)       0         \n",
      " g2D)                                                            \n",
      "                                                                 \n",
      " conv2d_61 (Conv2D)          (None, 87, 87, 32)        4640      \n",
      "                                                                 \n",
      " max_pooling2d_61 (MaxPoolin  (None, 43, 43, 32)       0         \n",
      " g2D)                                                            \n",
      "                                                                 \n",
      " conv2d_62 (Conv2D)          (None, 41, 41, 64)        18496     \n",
      "                                                                 \n",
      " max_pooling2d_62 (MaxPoolin  (None, 20, 20, 64)       0         \n",
      " g2D)                                                            \n",
      "                                                                 \n",
      " conv2d_63 (Conv2D)          (None, 18, 18, 128)       73856     \n",
      "                                                                 \n",
      " max_pooling2d_63 (MaxPoolin  (None, 9, 9, 128)        0         \n",
      " g2D)                                                            \n",
      "                                                                 \n",
      " flatten_15 (Flatten)        (None, 10368)             0         \n",
      "                                                                 \n",
      " dense_55 (Dense)            (None, 550)               5702950   \n",
      "                                                                 \n",
      " dropout_50 (Dropout)        (None, 550)               0         \n",
      "                                                                 \n",
      " dense_56 (Dense)            (None, 400)               220400    \n",
      "                                                                 \n",
      " dropout_51 (Dropout)        (None, 400)               0         \n",
      "                                                                 \n",
      " dense_57 (Dense)            (None, 300)               120300    \n",
      "                                                                 \n",
      " dropout_52 (Dropout)        (None, 300)               0         \n",
      "                                                                 \n",
      " dense_58 (Dense)            (None, 200)               60200     \n",
      "                                                                 \n",
      " dropout_53 (Dropout)        (None, 200)               0         \n",
      "                                                                 \n",
      " dense_59 (Dense)            (None, 3)                 603       \n",
      "                                                                 \n",
      "=================================================================\n",
      "Total params: 6,201,893\n",
      "Trainable params: 6,201,893\n",
      "Non-trainable params: 0\n",
      "_________________________________________________________________\n"
     ]
    }
   ],
   "source": [
    "model.summary()"
…
